…
Using PyTorch automatic mixed-precision
GPU is available: True, Quantity: None
Dataset(s) used:
Dataset length: ('train', 177907)
Dataset length: ('val', 9363)
Dataset length: ('test', 0)
Data(n_atoms=[1], pos=[71, 3], cell=[1, 3, 3], structure_id=[1], z=[71], u=[1, 3], y=[1, 1], forces=[71, 3], stress=[1, 3, 3], x=[71, 100])
tensor(3)
tensor([-521.0825])

--------------------------------------------------------------------------
               Layer.Parameter    Param Tensor Shape              Param #
--------------------------------------------------------------------------
              embedding.weight            [100, 128]                12800
      distance_expansion.means                  [50]                   50
      distance_expansion.betas                  [50]                   50
neighbor_embedding.embedding.weight            [100, 128]                12800
neighbor_embedding.distance_proj.weight             [128, 50]                 6400
neighbor_embedding.distance_proj.bias                 [128]                  128
neighbor_embedding.combine.weight            [128, 256]                32768
neighbor_embedding.combine.bias                 [128]                  128
attention_layers.0.layernorm.weight                 [128]                  128
attention_layers.0.layernorm.bias                 [128]                  128
attention_layers.0.q_proj.weight            [128, 128]                16384
attention_layers.0.q_proj.bias                 [128]                  128
attention_layers.0.k_proj.weight            [128, 128]                16384
attention_layers.0.k_proj.bias                 [128]                  128
attention_layers.0.v_proj.weight            [384, 128]                49152
attention_layers.0.v_proj.bias                 [384]                  384
attention_layers.0.o_proj.weight            [384, 128]                49152
attention_layers.0.o_proj.bias                 [384]                  384
attention_layers.0.vec_proj.weight            [384, 128]                49152
attention_layers.0.dk_proj.weight             [128, 50]                 6400
attention_layers.0.dk_proj.bias                 [128]                  128
attention_layers.0.dv_proj.weight             [384, 50]                19200
attention_layers.0.dv_proj.bias                 [384]                  384
attention_layers.1.layernorm.weight                 [128]                  128
attention_layers.1.layernorm.bias                 [128]                  128
attention_layers.1.q_proj.weight            [128, 128]                16384
attention_layers.1.q_proj.bias                 [128]                  128
attention_layers.1.k_proj.weight            [128, 128]                16384
attention_layers.1.k_proj.bias                 [128]                  128
attention_layers.1.v_proj.weight            [384, 128]                49152
attention_layers.1.v_proj.bias                 [384]                  384
attention_layers.1.o_proj.weight            [384, 128]                49152
attention_layers.1.o_proj.bias                 [384]                  384
attention_layers.1.vec_proj.weight            [384, 128]                49152
attention_layers.1.dk_proj.weight             [128, 50]                 6400
attention_layers.1.dk_proj.bias                 [128]                  128
attention_layers.1.dv_proj.weight             [384, 50]                19200
attention_layers.1.dv_proj.bias                 [384]                  384
attention_layers.2.layernorm.weight                 [128]                  128
attention_layers.2.layernorm.bias                 [128]                  128
attention_layers.2.q_proj.weight            [128, 128]                16384
attention_layers.2.q_proj.bias                 [128]                  128
attention_layers.2.k_proj.weight            [128, 128]                16384
attention_layers.2.k_proj.bias                 [128]                  128
attention_layers.2.v_proj.weight            [384, 128]                49152
attention_layers.2.v_proj.bias                 [384]                  384
attention_layers.2.o_proj.weight            [384, 128]                49152
attention_layers.2.o_proj.bias                 [384]                  384
attention_layers.2.vec_proj.weight            [384, 128]                49152
attention_layers.2.dk_proj.weight             [128, 50]                 6400
attention_layers.2.dk_proj.bias                 [128]                  128
attention_layers.2.dv_proj.weight             [384, 50]                19200
attention_layers.2.dv_proj.bias                 [384]                  384
attention_layers.3.layernorm.weight                 [128]                  128
attention_layers.3.layernorm.bias                 [128]                  128
attention_layers.3.q_proj.weight            [128, 128]                16384
attention_layers.3.q_proj.bias                 [128]                  128
attention_layers.3.k_proj.weight            [128, 128]                16384
attention_layers.3.k_proj.bias                 [128]                  128
attention_layers.3.v_proj.weight            [384, 128]                49152
attention_layers.3.v_proj.bias                 [384]                  384
attention_layers.3.o_proj.weight            [384, 128]                49152
attention_layers.3.o_proj.bias                 [384]                  384
attention_layers.3.vec_proj.weight            [384, 128]                49152
attention_layers.3.dk_proj.weight             [128, 50]                 6400
attention_layers.3.dk_proj.bias                 [128]                  128
attention_layers.3.dv_proj.weight             [384, 50]                19200
attention_layers.3.dv_proj.bias                 [384]                  384
attention_layers.4.layernorm.weight                 [128]                  128
attention_layers.4.layernorm.bias                 [128]                  128
attention_layers.4.q_proj.weight            [128, 128]                16384
attention_layers.4.q_proj.bias                 [128]                  128
attention_layers.4.k_proj.weight            [128, 128]                16384
attention_layers.4.k_proj.bias                 [128]                  128
attention_layers.4.v_proj.weight            [384, 128]                49152
attention_layers.4.v_proj.bias                 [384]                  384
attention_layers.4.o_proj.weight            [384, 128]                49152
attention_layers.4.o_proj.bias                 [384]                  384
attention_layers.4.vec_proj.weight            [384, 128]                49152
attention_layers.4.dk_proj.weight             [128, 50]                 6400
attention_layers.4.dk_proj.bias                 [128]                  128
attention_layers.4.dv_proj.weight             [384, 50]                19200
attention_layers.4.dv_proj.bias                 [384]                  384
attention_layers.5.layernorm.weight                 [128]                  128
attention_layers.5.layernorm.bias                 [128]                  128
attention_layers.5.q_proj.weight            [128, 128]                16384
attention_layers.5.q_proj.bias                 [128]                  128
attention_layers.5.k_proj.weight            [128, 128]                16384
attention_layers.5.k_proj.bias                 [128]                  128
attention_layers.5.v_proj.weight            [384, 128]                49152
attention_layers.5.v_proj.bias                 [384]                  384
attention_layers.5.o_proj.weight            [384, 128]                49152
attention_layers.5.o_proj.bias                 [384]                  384
attention_layers.5.vec_proj.weight            [384, 128]                49152
attention_layers.5.dk_proj.weight             [128, 50]                 6400
attention_layers.5.dk_proj.bias                 [128]                  128
attention_layers.5.dv_proj.weight             [384, 50]                19200
attention_layers.5.dv_proj.bias                 [384]                  384
attention_layers.6.layernorm.weight                 [128]                  128
attention_layers.6.layernorm.bias                 [128]                  128
attention_layers.6.q_proj.weight            [128, 128]                16384
attention_layers.6.q_proj.bias                 [128]                  128
attention_layers.6.k_proj.weight            [128, 128]                16384
attention_layers.6.k_proj.bias                 [128]                  128
attention_layers.6.v_proj.weight            [384, 128]                49152
attention_layers.6.v_proj.bias                 [384]                  384
attention_layers.6.o_proj.weight            [384, 128]                49152
attention_layers.6.o_proj.bias                 [384]                  384
attention_layers.6.vec_proj.weight            [384, 128]                49152
attention_layers.6.dk_proj.weight             [128, 50]                 6400
attention_layers.6.dk_proj.bias                 [128]                  128
attention_layers.6.dv_proj.weight             [384, 50]                19200
attention_layers.6.dv_proj.bias                 [384]                  384
attention_layers.7.layernorm.weight                 [128]                  128
attention_layers.7.layernorm.bias                 [128]                  128
attention_layers.7.q_proj.weight            [128, 128]                16384
attention_layers.7.q_proj.bias                 [128]                  128
attention_layers.7.k_proj.weight            [128, 128]                16384
attention_layers.7.k_proj.bias                 [128]                  128
attention_layers.7.v_proj.weight            [384, 128]                49152
attention_layers.7.v_proj.bias                 [384]                  384
attention_layers.7.o_proj.weight            [384, 128]                49152
attention_layers.7.o_proj.bias                 [384]                  384
attention_layers.7.vec_proj.weight            [384, 128]                49152
attention_layers.7.dk_proj.weight             [128, 50]                 6400
attention_layers.7.dk_proj.bias                 [128]                  128
attention_layers.7.dv_proj.weight             [384, 50]                19200
attention_layers.7.dv_proj.bias                 [384]                  384
               out_norm.weight                 [128]                  128
                 out_norm.bias                 [128]                  128
        post_lin_list.0.weight             [64, 128]                 8192
          post_lin_list.0.bias                  [64]                   64
        post_lin_list.1.weight               [1, 64]                   64
          post_lin_list.1.bias                   [1]                    1
--------------------------------------------------------------------------
Total params: 1734629
Trainable params: 1734629
Non-trainable params: 0
Attempting to load checkpoinRecenRecent checkpoint loaded successfully.
Settings: 
{'dataset': {'additional_attributes': ['forces', 'stress'],
             'data_format': 'json',
…
